model_cnn.pth (torch, 435608 bytes, 8 tensors)

conv1.weight f4 [6, 3, 5, 5]
00000000: b253 c3bd 0787 46bd 79f2 98bd 76a6 68bd
00000010: e3e0 22bd 47bc f8bd cc44 88bd 63eb 1ebe
00000020: 5593 84bd 2a23 073c ea09 18be 2f23 b63d
00000030: 68b8 b1bd cc07 cf3d 3cc4 fc3c e206 0c3e
00000040: cfa9 a1bd e636 f33d 7c3f 3b3d ea89 b6bd
00000050: 852a b73d 7ad9 8bbc a39c 9d3c f49d 523d
00000060: eb2f 37bd ff5c 123d aed5 a3bd df1c 343e
00000070: 2d5e 643d 280a 20bd e548 d2bc ef7b 743d
00000080: ab16 fb3d d639 373e 48b2 7bbc 4592 a33c
00000090: 6ded 433e 8da5 233e f303 d23d 2b0a 2ebd
000000a0: ae34 103e 0ac7 df3d f0d0 04bd 2668 ca3d
000000b0: ead8 ac3d af7d 87bd 2812 243e 2269 cc3d
000000c0: 7a66 c03d f363 713d 97d9 ce3c 2437 97bd
000000d0: c5d8 113e 5914 3fbd faa6 4c3d f4f3 80bd
000000e0: 0560 8e3c 3a06 c33d dddf 79bc 6a7f 16bc
000000f0: 09be 183c 1570 993c f299 70bd dd1e b23d
00000100: 31a1 0d3d b27e c43b 8963 89bd a24f cfbc
00000110: 5e28 f0bd 6ba7 29bd 8e71 59be 412a fbba
00000120: 687a 08be 9db1 8dbd d904 8abd 7440 c53d
00000130: c7bc fabc f93c 0e3d 179b 92bc f26b 363b
00000140: 4f40 593d a744 84bc 63f5 23bc 6682 c33c
00000150: 4b9f c53c d598 bebd afb6 dcbd e0a5 0ebe
00000160: 514a b3bd 110e 0d3d 53c8 0abe 4a4a 46be
00000170: 856a 18be 98c9 9ebd 506e a4bc be22 c3bd
00000180: 6ae5 f0bd 04b4 35be 8f2e 1cbe 5623 f7bd
00000190: 18d3 10be e84d ad3c b8a8 bebd af73 2abd
000001a0: 8654 a83c 6fb2 2ebe cb40 b03c c049 6dbd
000001b0: f5d1 9dbd 1127 1bbe 2559 203d e276 8dbd
000001c0: 4a45 debc f531 cdbb ce64 fdbd 70f8 af3c
000001d0: 9968 623d a256 6c3c e99a b5bd 8e37 e7bc
000001e0: 2534 1e3d ca69 4bbd 900f 1a3d 1260 c3bb
000001f0: d9f8 aebd d643 873d 8540 e2bc b71b 72bc
00000200: 1a7d 083d 512b d5bc 3452 803d dee2 bcba
00000210: 9697 8e3c 2aa2 433d 9a8c fc3d 97ed b33d
00000220: 9b54 1a3e d7a5 803e 85c9 953d 5d0e 043e
00000230: 8fc7 293e ac4e 4d3e 9b76 713e baeb 5e3e
00000240: 8415 ed3d b830 6c3a e2f7 4b3e 6c14 1b3e
00000250: a0a9 563e 6b7d 523e d0b1 b6bd 286c 9bbd
00000260: 4790 4bbd 4904 72be 0924 a43a f831 933d
00000270: 15ab e03c a7a9 ccbd 8feb 55be 1320 80bd
00000280: a3b8 2a3d 1934 193e c0eb 173e af03 47be
00000290: a0e5 44be ce0e b5bd b416 5e3e f730 453e
000002a0: f4ec a9bc 4de2 8abd 718d e93d 0bfc 1e3e
000002b0: cd6c a53d 9c2a de3c 6921 613e 657b 76bc
000002c0: 2113 243e b766 2b3d 24e4 4fbe 4ef1 5c3e
000002d0: 39c1 e53d 611e 823e 2be0 93bd d038 8bbe
000002e0: 95fb e9bc 782f 0a3d f3e8 783e 3ad1 da3c
000002f0: 7196 8cbe db94 e6bd c4dd b33b 956d bd3d
00000300: 03d0 333b 4cc6 9dbd f1a1 d8bd 7fa6 89bd
00000310: 2217 87bd 525e b1bb ab7b babd 77b6 12be
00000320: 1473 593d 118f 7d3d 315d e6bd 3c9b 42bd
00000330: 012e 083e 1135 4b3d a388 073e 39ac 323e
00000340: 1084 83be f144 123c ee04 5b3c f32b 8d3e
00000350: 0c1f 8d3d 9b55 40be 0420 9abd 25a7 173d
00000360: 4e70 e23d f9be 243e e6b2 12be 4569 a2bd
00000370: 6ad0 e6bb 3be6 b93d 35bc 893d 1976 a63c
00000380: 5fbf c53c d821 72bd ff51 163e e08c 673e
00000390: 0470 433e d4c1 f23d ab2d 01be 6041 d9bc
000003a0: 13d6 cabc 6681 3fbe 07b4 523d 6ce7 f93d
000003b0: 2d84 01be d486 8dbe ba55 78be b0b0 4cbe
000003c0: b541 c9bc b616 adbb 5c5d 903c 5baf 3b3e
000003d0: 729a ad3d 33f8 ac3d 962a 4e3d cef5 943c
000003e0: 4e10 3f3d 127e 3fbc c3d3 9c3d 89eb fa3d
000003f0: 7f52 063e 0728 483e 4db1 9cbc fb9a eabd
-0.09537448 -0.048468616 -0.07468123 -0.056799375 -0.03976525 -0.12145286 -0.06653747 -0.1551948
-0.06473414 0.00824813 -0.14847532 0.088934295 -0.08677751 0.10108909 0.03085529 0.136745
-0.078937165 0.118757054 0.04571484 -0.08913024 0.08943657 -0.017071474 0.01923973 0.051420167
-0.044723433 0.03573322 -0.079997405 0.17589138 0.055753876 -0.039072186 -0.025669524 0.059688505
0.12260183 0.17893156 -0.01536233 0.019967208 0.1913354 0.15981121 0.102546595 -0.042490166
0.14082596 0.109266356 -0.03242582 0.09883146 0.084398106 -0.06615769 0.16022551 0.0998099
0.09394546 0.05893321 0.02525024 -0.07383564 0.14242847 -0.046650264 0.04996393 -0.0629653
0.01737977 0.09522672 -0.015251127 -0.009185651 0.009322652 0.018730203 -0.058740564 0.08697293
0.034577552 0.0059965486 -0.06708438 -0.025306527 -0.117264494 -0.041419428 -0.21234724 -0.0019162373
-0.13327944 -0.06918643 -0.06739206 0.09631434 -0.030607594 0.034726117 -0.017896218 0.0027835337
0.053039845 -0.016146017 -0.010007235 0.02386589 0.024123808 -0.09306494 -0.10777032 -0.13930464
-0.08754409 0.034437243 -0.1355298 -0.19364277 -0.14884384 -0.07753295 -0.020072132 -0.09528111
-0.11762507 -0.17744452 -0.15252136 -0.12067287 -0.14143026 0.021155313 -0.09309524 -0.04161423
0.020548116 -0.17060255 0.02151527 -0.05793166 -0.07706062 -0.15151621 0.039147515 -0.06907441
-0.027132649 -0.006262059 -0.123727426 0.021480769 0.055275533 0.014424952 -0.088674374 -0.028224733
0.038623948 -0.049661435 0.037612498 -0.00596238 -0.08543558 0.066047356 -0.027618656 -0.014777116
0.03332243 -0.026021631 0.06265679 -0.0014410873 0.017406266 0.047762074 0.12331505 0.08785551
0.15071337 0.25126526 0.073138274 0.12896104 0.16580032 0.20049542 0.235804 0.2176961
0.115763694 0.0009009945 0.19918779 0.15144509 0.20963144 0.20555656 -0.08920634 -0.075889885
-0.04969814 -0.23634447 0.0012522946 0.07187265 0.027425328 -0.09993296 -0.2089064 -0.06256118
0.04167999 0.1496128 0.14836025 -0.19434999 -0.1922822 -0.088407144 0.21688348 0.1925696
-0.02074287 -0.06781445 0.11403931 0.15525834 0.08077393 0.027119927 0.21985401 -0.015044068
0.16022922 0.041846003 -0.20301872 0.21576425 0.11218495 0.25413802 -0.07220491 -0.27191782
-0.028562346 0.033736676 0.24307613 0.026711095 -0.27458528 -0.11258861 0.005489083 0.09249417
0.0027437217 -0.07703838 -0.10577763 -0.0672121 -0.06596209 -0.005412855 -0.09105619 -0.14327417
0.053088263 0.061904017 -0.112482436 -0.047511324 0.13298799 0.049611155 0.13235717 0.1744851
-0.25686693 0.00892757 0.013367875 0.27572593 0.06890687 -0.18782656 -0.07525638 0.037024636
0.11056577 0.16088475 -0.14326057 -0.07930235 -0.007043888 0.09077116 0.06725351 0.020319985
0.024139104 -0.059114307 0.14679717 0.22612333 0.190857 0.11853376 -0.12615077 -0.026520431
-0.024760282 -0.18701705 0.05144122 0.12202343 -0.12648077 -0.27641928 -0.24251452 -0.19989276
-0.024567464 -0.0052822484 0.017622642 0.18328612 0.08476724 0.08445778 0.050333582 0.018183615
0.04664641 -0.011687772 0.07657578 0.12251956 0.13117407 0.19546519 -0.019127512 -0.114553414

conv1.bias f4 [6]
00000000: c67a d8bd 71ff d53d fd77 d6bc d4a4 78ba
00000010: 107b 6a3d 1c52 5abe
-0.10570292 0.10449112 -0.026180262 -0.00094850105 0.057246268 -0.21320385

conv2.weight f4 [16, 6, 5, 5]
00000000: 167b e83c fbd9 db3d d20f 5d3d 146a bcbc
00000010: 1bb6 a53d 33fc 81bd 861b 26bd e581 3abd
00000020: f06f 00be e070 90bd c8dc 52be 1ab7 51be
00000030: 8209 c5bd 6c49 6cbd f8b6 39bd c32f c7bd
00000040: 1082 b8bd 8a4c 4fbd fc05 a43c 7a06 3d3e
00000050: f76c c33c ad9e 4e3d c9a0 303d ed83 4a3e
00000060: a1d4 363e 29b4 c7bd 86eb 89bd 883f bcbd
00000070: b16c 3c3d f93b af3d 6486 c8bd cef7 2ebe
00000080: bf2b a9bc 34fa f5bd e976 cb3d 2604 48bd
00000090: 484e 8cbc 7b96 3e3d 5719 c73d 12c1 403d
000000a0: 18c6 9a3d 3bea 0c3e 1755 ad3d 1a5e 033e
000000b0: 5ebb fe3d 8945 043e 3792 1d3e e96e fe3d
000000c0: 8c44 0abd d7bb a2bb 80c3 ebbc 7618 0dbc
000000d0: c62e 3cbd f3d1 60bd 6ab5 d9bd ca8d 8cbd
000000e0: 282a d6bd f695 19be fdf3 49bd 1d41 08bd
000000f0: 5883 2dbc 416e 21be f837 ebbd c577 e5bd
00000100: 99c0 0f3d 5f88 c83d 5450 7f3d 1d26 c1bb
00000110: 4762 553d c715 81bc 6000 3c3d 05fa 313d
00000120: 9a5f 843d 76d3 5dbd fa8f 1ebd 8098 be3d
00000130: c3f8 a73d 1ad8 143d 921c 193a 52f5 993d
00000140: 0a7c 0f3e f4f7 a43d 4545 813d 4bef b03d
00000150: 6ec4 bd3d 7ba9 f93d 590f de3d 92fc 313d
00000160: 800f 3a3e 11cf d53d 73ae 713e c2b4 6f3e
00000170: 6f77 4d3e 9880 7e3e 2525 6e3c 1b07 5e3e
00000180: 6852 853d 62a1 333e cae5 0d3e e4fa c03d
00000190: 87f6 7ebd 1815 933c 7b4e 2f3b c379 4c3c
000001a0: d1ff a53d 4b88 b73d c081 c33d 87a6 273e
000001b0: 04d6 6e3e ae49 453e f64e fb3d 1644 c3bc
000001c0: e94c 82bc 8f5f 7d3d f4cb e83d 3eaa 12be
000001d0: e948 8cbe d70e d5be ad20 d1be dcb4 e5bd
000001e0: ff6c 20be b6ad a9be 5b80 fbbe 8854 2bbf
000001f0: 4f74 f0be 9150 b63c fc3c febc b1b0 1abd
00000200: b2ba 693c b3f0 6e3d 2cb1 a53d 542c 8e3d
00000210: 3174 113b 892c 0dbe d793 c4bd 35c0 0d3d
00000220: b12f a53d cf53 513d d78f 3abb db3b 35be
00000230: 70d6 b0bc 6bef b8bd 8b25 8cba df1c a63c
00000240: b563 013d 9872 77bd 0b10 69bd f167 943d
00000250: 0c5a dc3d ab32 393e d567 233d 9635 fb3b
00000260: 821c 21bd 49d6 c8bd b9f7 e43c 44ea 973b
00000270: 379a ccbd f8bd a93c 352c b6bd d720 f83b
00000280: 91ab 333d 399b 7fbd 1f88 72bd 398e 59bd
00000290: fe66 a53b d01b 8dbd 2553 59bd 096d b73c
000002a0: 0bfb 9d38 17c3 3dbd b885 95bd 91d4 55bc
000002b0: a560 a7bd aba9 c1bd 62af 6cbd f54b 623c
000002c0: 3577 43bd e5fe b6bd 3d29 9cbd 1311 35bd
000002d0: beab 8c3c 9185 2d3d df7e 53bc 5a2f afbd
000002e0: a8b2 62bd 1c8b 74bd 688b 71bc 08ab 7f3d
000002f0: 92de 3fba 8f25 1cbd 4868 afbd 7aa9 39bd
00000300: 101b f7ba af6e aebd d3e8 83bd 7c95 793d
00000310: 3df8 27bd 6849 08bd 3620 06bd 3e88 5e3d
00000320: cd28 9d3c 7b40 9cbd bb93 66bc 3fd2 51bc
00000330: 59a5 783d 4c32 40bd f4ff c63c c8b9 463a
00000340: f9f4 f43c 746b d93b 6a99 043d bb2d e0bc
00000350: ec19 60bd 25c4 843c 72d0 21bc 5aab a9ba
00000360: 7cf9 993c aa6a 353b f63c a93a b621 dcbc
00000370: 3c9c d83c 11f9 5abd b8a0 88bd b457 0d3d
00000380: 1985 cb3c 0e50 64bd c5ef 75bd 4831 b8bd
00000390: 53a6 c83c 26bb 883c d1e6 1b3d 85b4 643d
000003a0: 80e6 08bd 9217 473d c8a6 efbb 356f eebc
000003b0: fd51 4e3c 4338 c5bd 6e8b dcbd 2ef5 d8bc
000003c0: 6438 c2bd 18ad 123d 89f0 ec3c 62a7 68bd
000003d0: ddd4 d23c f114 8abd d06b f33c c7c1 513d
000003e0: 1b45 8dbd d5b1 fdbc bf45 bebd d180 d739
000003f0: 3c85 253c 6295 fabd 9798 43bd ed53 ecbd
0.028379004 0.10734936 0.053970166 -0.0229998 0.080913745 -0.06346931 -0.040553592 -0.045534033
-0.12542701 -0.07052779 -0.20592034 -0.20480004 -0.09620954 -0.057687208 -0.04534051 -0.09725907
-0.090091825 -0.050610103 0.020022385 0.18459502 0.02385567 0.050444294 0.043122087 0.19776888
0.17854549 -0.0975116 -0.06734376 -0.09191805 0.046002094 0.08556361 -0.09791258 -0.17086717
-0.020650743 -0.12010613 0.0993479 -0.04883208 -0.017127171 0.046530228 0.0972163 0.047059126
0.07557315 0.13761227 0.08463495 0.12828866 0.12438081 0.1291715 0.15387808 0.12423498
-0.033756778 -0.00496624 -0.028779745 -0.008611789 -0.045943044 -0.054887723 -0.10630305 -0.068629816
-0.104572594 -0.14998612 -0.04930495 -0.033265222 -0.010590397 -0.15764715 -0.114852846 -0.11204485
0.035095785 0.09791636 0.062332466 -0.005894436 0.052095678 -0.015757455 0.045898795 0.043451328
0.06463547 -0.054156743 -0.038711525 0.09306431 0.082017444 0.036338903 0.0005840744 0.07517494
0.14012161 0.08055106 0.0631204 0.086393915 0.092659816 0.12190529 0.10842771 0.04345376
0.18169975 0.104398854 0.23601703 0.23408797 0.20065092 0.24853742 0.014535223 0.21682398
0.06509858 0.17542031 0.13857189 0.094228536 -0.062246826 0.017954394 0.002674966 0.012480202
0.08105434 0.08961543 0.09546232 0.16372119 0.23323828 0.19266388 0.1227092 -0.023836177
-0.015905814 0.06185871 0.11367026 -0.14322755 -0.27399376 -0.41612884 -0.40845242 -0.11216137
-0.15666579 -0.33140343 -0.49121365 -0.6692586 -0.46963736 0.022255214 -0.031034939 -0.037766162
0.014265703 0.058335017 0.080904335 0.06942049 0.00221945 -0.1378652 -0.09598511 0.03460713
0.08065737 0.051105317 -0.0028467083 -0.17698614 -0.021586627 -0.0903004 -0.0010692341 0.020277439
0.03158923 -0.06041202 -0.056900065 0.07246388 0.107593626 0.18085735 0.039893944 0.0076663
-0.039333828 -0.09806497 0.027950155 0.004636081 -0.09990352 0.020720467 -0.088951506 0.007572274
0.04386479 -0.06240389 -0.059211846 -0.05311415 0.005047678 -0.068900704 -0.05305781 0.02239086
7.533104e-05 -0.04632863 -0.073008955 -0.013051168 -0.0817273 -0.0945619 -0.057784446 0.013812055
-0.047721107 -0.08935336 -0.07625053 -0.044205736 0.017171737 0.042363707 -0.012908666 -0.085539535
-0.05534616 -0.059702978 -0.01474271 0.062418967 -0.00073192373 -0.038121756 -0.08564812 -0.04532764
-0.001885267 -0.08517205 -0.06440892 0.060933575 -0.041008223 -0.03327313 -0.032745562 0.05432915
0.019184494 -0.07629486 -0.014073308 -0.012806474 0.060704563 -0.046922967 0.02429197 0.0007580784
0.029901968 0.006635124 0.03237287 -0.027365556 -0.05471222 0.01620681 -0.009876357 -0.0012944744
0.018795721 0.0027681985 0.0012911845 -0.026871543 0.026441686 -0.053460184 -0.0667128 0.03450747
0.02484374 -0.05574041 -0.060043115 -0.08993775 0.024493372 0.016690802 0.03806192 0.05583622
-0.033422947 0.048606463 -0.007313583 -0.029105762 0.01259279 -0.09629872 -0.107687816 -0.026484098
-0.09483412 0.035809606 0.02892329 -0.056800254 0.025736267 -0.067422755 0.029714495 0.05121019
-0.068979464 -0.030968586 -0.09290647 0.0004110397 0.010102566 -0.12235524 -0.047752943 -0.11539445

conv2.bias f4 [16]
00000000: e743 b2bd b007 7cbd dc14 34be 96ae b63d
00000010: 8451 18be d45a e53d 2ecb 7b3e 9b09 723d
00000020: b262 8d3d fdd7 c43d 97c5 33bc 05ed 50be
00000030: cc4c 593e 050b 41be 9f9b 413e e474 c93e
-0.087043576 -0.06153077 -0.17586082 0.089200184 -0.14874846 0.11198965 0.24589226 0.05909119
0.0690359 0.09611509 -0.010972402 -0.20402916 0.21220702 -0.1885186 0.18907021 0.39346993

fc1.weight f4 [256, 400]
00000000: c715 2bbe 5095 acbd 4b7c a33d 2128 ce3d
00000010: 7b11 2f3c ba34 8abc f62f e73d 47a6 873e
00000020: a435 693e b4b2 223d 240b 043d 4ad2 bf3d
00000030: e6ae fdbc 767d 613d 15f0 9c3d 735c dd3d
00000040: 93a7 1e3d 5e50 3d3d 1290 013e fa62 163e
00000050: 09d1 f23d 250b 0c3e a176 1abb aa8f 9f3d
00000060: e101 043e 6b6d 4b3c e2ae 0a3d 2e31 e63c
00000070: 650e 1ebc aa25 0cbd 3925 843c 0cbe 2ebd
00000080: 642a 3dbc 9da7 22bd 3232 04bd e8c2 033c
00000090: 878c 963c 8e86 39bd 0fb9 ea3c c0e1 1a3d
000000a0: ebc5 32bd e196 873c 63c5 e73c 2c98 103b
000000b0: 6195 3dbb a03d 0fbd eefb d83c c133 41bd
000000c0: de19 2e3d ea2d 2c3c b421 5fbe c5bf dcbd
000000d0: f56a 9cbd 2397 de3b 03e0 05be fcb9 99bd
000000e0: 8b3d 2c3d 7bea d13d be7e bb3d 42fc 2d3e
000000f0: cb36 36bd 7c57 0c3d a152 be3c b0ec 753d
00000100: 9907 353e fa7e 00be 2c0a 173d 5598 a4bc
00000110: 0f60 993d a4bc ea3d f917 b2bd 55ca 3fbc
00000120: da15 d7bd de4e 9abd adc0 61be f569 903e
00000130: 4bb8 ca3c 57fe 073e 3a6a c33d 9e31 a73d
00000140: 8adf 2d3e 6137 93bc 1be1 91bc 47af 313e
00000150: 17e6 233e fa29 823d 3d7c 5dbc f904 c7bd
00000160: 8de5 2fbc 96cf 863d fa3e 133d 1a8a 0b3c
00000170: 59c9 813d 119b 063d cd64 423d 9a76 f3bd
00000180: 77d7 f1bd ad3b 96bb 6b73 ebbc e66a fdbd
00000190: d909 57be a95d c43d 82de 69bd 68f8 f6bd
000001a0: 2c31 9ebe 7119 43be 943e 193d 9c4c 593d
000001b0: 2152 e93a a08e ccbd b3d4 39be 1db8 d33c
000001c0: a057 cebc 4439 a6bd d366 2abe 0680 e2bc
000001d0: 680a 803d 9c70 503c f0f7 a6bd dad0 5c3b
000001e0: adb0 2e3d 4e40 483d 0a9c b03c 96fd 2e3e
000001f0: 1014 503d 0da4 2dbd 2e9a 7ebc 7b49 1fbd
00000200: f441 35bd 5b0e dabd 3a42 2f3d c438 08bd
00000210: 563a 7f3d ff3d 283d 225b ab3c f547 da3b
00000220: 213b 323d 950a 0b3d 9cb6 883d e405 3b3d
00000230: 624f 55bd 21c5 f1bb b208 94bd 626d 8b3d
00000240: c124 a73a 69b8 e5bc 48ce 273d ebe3 bc3c
00000250: aab1 143d dce8 93bc 1264 a33e 24a7 ae3e
00000260: 5c88 973e 7496 343e 28b4 ea3d bd75 423e
00000270: 3d97 893e 9b37 cc3d 4ecb 063e 7188 b53d
00000280: 2fb3 243e 93d8 79bd 6375 29be 3b78 85bd
00000290: ba76 f73d 7e40 2f3d 8ddf 6bbd af96 3cbe
000002a0: 9957 3bbe 9e45 0e3e b6d6 313c 6c7d 1bbe
000002b0: eae9 3bbe 9004 e6bd 563a 3a3e 5e81 6a3e
000002c0: 6967 953d 5671 edbd 89ed e83c bcba 6cbd
000002d0: b30d 89bd 5f1e 37be f3fa a9be 8cd6 9fbd
000002e0: 20cd ccbd 67b2 a9be caa8 0fbf 0e47 06bf
000002f0: 41b5 02bf d63b 99be 9d78 84be ae5d a1bd
00000300: 3e7e 3ebd df2e 6b3d 7d67 5cbd 88f6 33bd
00000310: f2c9 7cbc 7875 89bd b434 053e 1cbb f53c
00000320: 721e 513d 5cdd 68bc bb24 3b3e 8277 f83d
00000330: 9491 1a3e 5490 f83d 9fe2 e5bd e968 2d3e
00000340: bdf8 3f3e a6b1 f33d f344 913d 08e3 d8bd
00000350: 5144 eabd 60cb f43b 5b34 453d 9707 c5bd
00000360: 6587 b83b c659 a6bd 8c52 d5bc fee1 cc3d
00000370: e997 37bd 1454 493d 4781 013d c249 fb3d
00000380: 0f66 35bd 06c1 2ebe 988f 44be 1946 2bbe
00000390: 7128 00be 6728 6abe f3fa 463e d46d 173e
000003a0: 7041 68bd d5fb e6bd 215a 28be 92f5 a53e
000003b0: 1901 073e 9e4d 38bd a101 f43c 981a dfbd
000003c0: e5f7 593e 6131 2e3e 7915 d4bc 2c2e e23d
000003d0: 9b66 133d 92ac 943d 2105 303e dfd5 93ba
000003e0: 8724 8c3d 617a f83d 1974 2ebe cfb6 c73d
000003f0: 9f92 fcbc 7417 c83d 3840 afbc 511e d63b
-0.16707526 -0.084269166 0.079826914 0.10066248 0.01068532 -0.016870845 0.11288445 0.26494047
0.22774369 0.039721206 0.032237187 0.09366281 -0.030967187 0.05505129 0.076629795 0.10808649
0.03873403 0.046219222 0.12652615 0.14686194 0.118562765 0.13676126 -0.0023569243 0.077910736
0.12891342 0.012416224 0.033858187 0.028099623 -0.009646987 -0.034215607 0.01613103 -0.04266171
-0.011545751 -0.03971063 -0.032274432 0.008042075 0.018377556 -0.045294337 0.028652696 0.03781295
-0.04364578 0.016551437 0.028292364 0.0022063358 -0.0028928148 -0.03497088 0.026487317 -0.047168497
0.042505138 0.010508994 -0.217902 -0.10778765 -0.07637588 0.0067929192 -0.13073735 -0.07506177
0.04205088 0.10249802 0.091550335 0.1699076 -0.04448585 0.03426312 0.02323276 0.060040176
0.1767868 -0.12548438 0.036874935 -0.020092169 0.07489025 0.114617616 -0.08695979 -0.011705955
-0.10502215 -0.07534574 -0.22046156 0.2820584 0.02474608 0.13280617 0.095417455 0.081637606
0.16979805 -0.017970743 -0.017807534 0.17352019 0.16005741 0.06355663 -0.01351839 -0.09717745
-0.0107358815 0.065825626 0.03594873 0.008516813 0.06337232 0.032862727 0.047459412 -0.11887856
-0.11808675 -0.0045847506 -0.028741559 -0.12373905 -0.2099985 0.09588177 -0.057096966 -0.120590985
-0.3089689 -0.19052674 0.037413195 0.053051576 0.0017800966 -0.09988141 -0.18147545 0.025844628
-0.025188267 -0.08116391 -0.16640787 -0.027648937 0.06251985 0.012722161 -0.08152759 0.0033693821
0.04264896 0.04888945 0.02155878 0.17088923 0.050800383 -0.04239278 -0.015539689 -0.038888436
-0.04425235 -0.10647269 0.042787768 -0.03325726 0.062311493 0.04107475 0.020917479 0.00666141
0.04351342 0.03394564 0.06675455 0.045659915 -0.05207766 -0.007378236 -0.07228221 0.068079725
0.0012752042 -0.028042035 0.04096821 0.023057899 0.036302246 -0.018055372 0.31912285 0.34111893
0.2959622 0.17635518 0.11460143 0.18990226 0.26873198 0.099715434 0.13163492 0.08863915
0.16083978 -0.060997557 -0.16548686 -0.06517073 0.12083192 0.042786114 -0.05758624 -0.18416856
-0.18295135 0.13893744 0.010854414 -0.15184563 -0.1835095 -0.11231339 0.18186316 0.22900912
0.072951145 -0.11593883 0.028433578 -0.05779527 -0.06692066 -0.1788268 -0.33199272 -0.078045934
-0.10000062 -0.33143923 -0.56116927 -0.5245217 -0.5105782 -0.29928464 -0.2587327 -0.07879196
-0.046507113 0.057417747 -0.05380963 -0.043936282 -0.015429007 -0.067118585 0.13008386 0.029996447
0.051054426 -0.014212932 0.1827573 0.12132169 0.15094596 0.121369034 -0.11224865 0.16934551
0.1874723 0.11899118 0.07093229 -0.10590178 -0.114388116 0.0074705333 0.048145633 -0.09620588
0.0056313747 -0.08122592 -0.026040338 0.10004042 -0.044822607 0.04915245 0.03161743 0.122699276
-0.044286784 -0.1706582 -0.19195402 -0.16725959 -0.12515427 -0.22866975 0.19431667 0.1478799
-0.05670303 -0.11278502 -0.16440631 0.32413918 0.13184012 -0.044995897 0.029785933 -0.10893744
0.2128597 0.17011024 -0.025889145 0.11043963 0.035986524 0.07259478 0.17189457 -0.0011278949
0.068429045 0.12132717 -0.17036475 0.09751665 -0.030831633 0.09770098 -0.021392927 0.0065343757

fc1.bias f4 [256]
00000000: e05e 69bd 8b5e 783e c618 83bc 7860 3c3a
00000010: ccca 89bd 1141 08bd 3687 b93e 4e6c d83c
00000020: 1ff0 5abd c118 72bd 5dc4 043f 87f8 63bd
00000030: e45f 53bc eb15 3cbe fd61 d0bc 56d4 ddbc
00000040: 2eb2 63bd d653 0ebb 0360 4a3d 0bdd a73d
00000050: abbf ac3e 96af 8c3e b72b 173c ad64 64bd
00000060: 7b63 33bd bc9f a53d 7e8d 723d 759c 493f
00000070: cc11 143f 4a7e d43e 52ad 903e 5a07 753e
00000080: 67af 103f cf6f 2f3f 9d7f 823e ef6d cf3e
00000090: 0b66 2ebb 1498 5e3c da11 80bd a090 5dbd
000000a0: b974 d93c 2c65 4b3d c2d7 0fbd 3582 06be
000000b0: 9696 783e ce9d 7bbd d090 583e 3a5b 943c
000000c0: 73bd ab3e 7366 5c3d 6c83 b63b b043 7b3e
000000d0: 2a9a d6bc 84f4 483c f134 98bc 71bd df3d
000000e0: be57 de3e 9beb 8abc 841e de3e c2d5 acbc
000000f0: 4350 84bc 9650 c43e 3ec8 f9bc 853c ac3e
00000100: 4b3f fdbc f2f8 54bd f284 70bd 764b a83e
00000110: 441c 5fbd 9a67 893b 2665 a1bd 0eb6 583c
00000120: 7a5e 94bd 6997 8e3e 63a3 e93e 9b81 5fbd
00000130: 4c51 c63d 5509 1e3e fba8 b3bc 3bb9 19bd
00000140: 7db9 2e3f df23 e6bc 2586 c7bd f408 89bd
00000150: d724 253f b389 733d 7326 8d3e 6f88 a43d
00000160: 963f 0e3c fd8b 2dbd 8a1f 02bd 1f7e c43e
00000170: 3832 c7bd 1583 53be cc7d 843d b9fc 4a3e
00000180: 57f3 a63e 3d57 be3d 98f9 b63d d247 63bd
00000190: 9d87 5dbc ce09 0c3e 2953 58bd 369a 8abd
000001a0: 1cc0 123b c7b6 e73d ccb9 1e3e ec44 403e
000001b0: a456 963e f404 a53e b660 eb3d 709c 6cbd
000001c0: e04c 9fbd f306 c13e 2b5b b7bc 9c88 073f
000001d0: e30b bb3c c1f3 a5bb 31fe d2bc c647 bd3d
000001e0: 4152 c63e c639 b63e b6cf c93d 1927 9dbd
000001f0: d798 883e 107d 223f afc5 11bc 076f 103d
00000200: 5961 743e 7462 0fbd a680 b5be 972d b33d
00000210: 3508 b33e 2d0a 4abd 3647 de3e 1737 623d
00000220: 6c23 8ebd 7ae5 e53e bf9e 33bd 8ce2 a23e
00000230: 14b4 823e 33db 773e 86ed ac3d d073 90bd
00000240: 0b40 593e 9216 dd3d e29b 7e3e a8f4 79bd
00000250: c407 dd3e 209d 64bd 9701 04bc a30b dd3c
00000260: f200 873d 22ff 083e b5ad 9abd d0a5 92ba
00000270: 6602 aa3d 759a f9bc 2e5a 36be 3226 003f
00000280: 7752 38bd 4cec eabc 6c02 43bd 711e 03bd
00000290: 5b2d a83d 832d 0a3e 6d64 e93e 292e 143c
000002a0: 7505 a7bd 9a65 30bc 18ab 3cbe 7969 f33e
000002b0: d4d5 bdbc b4a5 dfbd b609 ac3e 2705 8b3d
000002c0: 3ec3 bb3e 4044 54be de7a c0bc 6106 b8bc
000002d0: 5296 32bd 46a8 833e 911f 4cbd c631 65bd
000002e0: 7318 9bbd 57fc 003f 1aa9 bd3e bedd cabc
000002f0: f8d8 d03e afa1 263c 2f1e 8a3d 48f6 ecbd
00000300: 57d9 e73d 4242 08bf 116d e9bc b862 d43e
00000310: 1c38 91be f628 06bd 72a5 c43e bd73 9f3e
00000320: 1ef4 68bd 668f 8cbe ba77 29bd 16de 7d3e
00000330: db0e fe3d d827 dabc 5629 693d 0ac3 073e
00000340: 681c 5fbc c449 9f3e 81c1 05be e1d5 d53e
00000350: 7d4b d13d afc5 3fbd 9b83 0abe 24b2 2cbd
00000360: 9892 8a3e dba2 efbe f83a b3bd 1d6a 72bd
00000370: 95a6 f23e f7fc d6be 9119 0dbe 128b 343b
00000380: 2c3b 96bd 1f47 7bba 5ceb ba3d 11fd 71bd
00000390: 93b5 cf3e 5b40 023c 04b3 493d 264d 5fbd
000003a0: 1e4e 013b 92e9 9cbe 403e a03e bb87 543e
000003b0: 2638 35bd c537 c33e 4911 29be 9afa e3be
000003c0: 9ddf 3abd df79 e93d d314 debd 4cef 053e
000003d0: 2d6d 083e 0ed4 063f ebc3 8a3d 3080 d23b
000003e0: fd9a 8fbd 3ee6 c23c 0bbb 77bb 8a4f f43c
000003f0: 4860 59be aaba 88bd 3bda 223a 0a5e 07bd
-0.056975245 0.24254815 -0.016003024 0.0007186006 -0.067281336 -0.033265177 0.3623597 0.026418831
-0.053451654 -0.05910564 0.51862127 -0.055656936 -0.01290128 -0.18367736 -0.02543735 -0.027078789
-0.055589847 -0.002171745 0.04940797 0.081964575 0.3373998 0.2747771 0.009226731 -0.055760074
-0.043796044 0.080871075 0.05921697 0.7875436 0.57839656 0.415026 0.28257233 0.23928586
0.5651764 0.6852998 0.25487986 0.4051356 -0.0026611115 0.013586063 -0.06253405 -0.054093003
0.026544916 0.049657032 -0.035117872 -0.13135608 0.24276194 -0.06142979 0.21148992 0.018109906
0.33542976 0.05380864 0.005569866 0.2453754 -0.026196558 0.012265328 -0.018579932 0.10924805
0.43426317 -0.016958049 0.43382657 -0.021098021 -0.016151553 0.38342732 -0.03049099 0.33639923
-0.03091397 -0.051995225 -0.058720537 0.32870072 -0.054470316 0.0041932585 -0.07880621 0.013226999
-0.072445825 0.27849892 0.45632467 -0.05456696 0.09683475 0.15433247 -0.021931162 -0.037530165
0.6825178 -0.028093277 -0.09742383 -0.06691161 0.6450934 0.059457492 0.27568397 0.08033835
0.008682152 -0.04236983 -0.03176836 0.38377473 -0.09726375 -0.20655473 0.06469306 0.19822969
0.3260753 0.09293983 0.08934325 -0.055488415 -0.013521102 0.13675615 -0.052813683 -0.06767695
0.0022392338 0.11314159 0.15500563 0.18776292 0.29362977 0.3223034 0.114930555 -0.057766378
-0.077783346 0.37700614 -0.02238234 0.52942824 0.022832816 -0.005064458 -0.025755974 0.09242205
0.3873463 0.35590953 0.09854071 -0.07673473 0.26679108 0.6347208 -0.008897229 0.035262134
0.2386526 -0.035006 -0.35449713 0.0874893 0.349672 -0.04932611 0.43413705 0.05522832
-0.0694035 0.4490164 -0.043852564 0.31813467 0.25528014 0.24204712 0.084437415 -0.070533395
0.21215837 0.107953206 0.24864152 -0.061024338 0.43169987 -0.05581391 -0.00805702 0.026983088
0.06591977 0.13378575 -0.07552663 -0.0011188332 0.08301239 -0.030469159 -0.17807838 0.5005828
-0.04500052 -0.028677128 -0.04760973 -0.032011453 0.08211776 0.13493924 0.4558443 0.009044209
-0.08155338 -0.010766411 -0.18424642 0.47541407 -0.02317325 -0.10920277 0.3360116 0.06788092
0.36672395 -0.2072916 -0.023496088 -0.02246398 -0.043600388 0.2571432 -0.04983479 -0.05595567
-0.07573023 0.5038504 0.37043077 -0.024763938 0.40790534 0.010170384 0.06744038 -0.11570412
0.11320751 -0.532261 -0.02849439 0.41481566 -0.2836312 -0.032753907 0.38407475 0.3114299
-0.056873433 -0.27453154 -0.041373946 0.2479175 0.12405177 -0.026630327 0.056924187 0.13257995
-0.013617612 0.31110966 -0.13062097 0.4176474 0.10219476 -0.046819385 -0.13526766 -0.042162076
0.27064967 -0.46803936 -0.08751482 -0.05918323 0.47392717 -0.41989872 -0.13779284 0.0027548713
-0.07335505 -0.0009585488 0.091269225 -0.059079234 0.40568218 0.007949914 0.04924299 -0.054516934
0.00197304 -0.3064695 0.31297493 0.20754902 -0.044243 0.38128486 -0.165105 -0.4452713
-0.04562341 0.11400198 -0.10843816 0.13079566 0.13322897 0.5266732 0.0677565 0.0064239725
-0.070119835 0.023791429 -0.0037800695 0.029823083 -0.21228135 -0.06676228 0.00062123284 -0.033048667

fc2.weight f4 [10, 256]
00000000: 6f1f 9f3d 35c5 fd3d d904 d93d 8f51 923c
00000010: 1849 97bc 1597 f53d 4873 5dbe 0da9 71be
00000020: 13dc 743d 4b27 933d cca1 3fbe 2452 60bd
00000030: 7148 2b3d 8430 c33c a91d 603d 5cc5 03bc
00000040: e6eb 993d eb1d 403d d11d 96bd c1a3 263e
00000050: bf8e 3bbd 0e30 ffbd 4b5d b53c 29ce 6fbd
00000060: d3f3 d93c c230 0e3e b8e6 29be eb6f eebe
00000070: 0be9 90be 2d26 26be 9bdd 02be f9b7 57be
00000080: 4d7d 23be e893 4dbe 3c95 f23d 0d67 3fbe
00000090: c553 2fbe 36f2 0bbe 0ba0 3c3c 07d9 a5bc
000000a0: b1e8 42bd ed14 53bd 1dc6 8bbc a9e7 a73d
000000b0: a855 ac3d 4f80 363d 7688 ec3d 4892 46bc
000000c0: 8984 06be d0ad cbbd 409f 3ebd 330c 6f3d
000000d0: 66d8 ed3d 3aee 043c d54c 9c3b 96c9 653d
000000e0: 47a7 abbe 0cbb 53ba c02a e23d 3398 dbbc
000000f0: 1b05 6abd f241 0bbe 74a2 ed3c c57a 6fbd
00000100: 26c2 2b3d 6249 f93d 537a 97bd f674 1a3d
00000110: 0b8a e8bd d629 d33d cd35 47bb 3ce8 8ebc
00000120: 3695 23bd 5737 28bd 49fe 5e3d 923f f63c
00000130: 0fee 2fbd ef79 01be 8658 34bd 93da 2fbd
00000140: f103 17be fc2b fdbd 725a 813d 5a0f edbb
00000150: d048 a03d c563 69bd 851a 8a3d 1aa1 1cbe
00000160: a812 7a3c 63f7 f23b 0b14 94bd 036c 67be
00000170: 1623 1f3e 3b8e eb3c 3d83 83be bf9e 623d
00000180: b315 92be 9767 8b3e 1c93 e43d 36b3 38bc
00000190: a0cc 4d3d a8eb 6a3d 86f4 1e3e d803 0b3c
000001a0: ad6c 083e 6c89 c53d 13b5 a13d 1f35 e53d
000001b0: 9191 19be d4e6 afbd 7ebc 87be 9cb8 583d
000001c0: 667f 68bc 177a 5e3e 4e53 3bbd e62c 57be
000001d0: c076 04be 4ef8 2d3d 601a b6bd ecc0 143e
000001e0: 3273 1bbb 4d97 9abd 22d5 9c3d f382 21bd
000001f0: 709b 323d 2a34 5bbe 8d2a 103c 1391 fcbd
00000200: 20fd 15be 87da ccbc 424c 1d3d fdba e73c
00000210: ae1e 2cbe 035a 3a3d 5eca 5ebd b56b 30be
00000220: d0fc 803d 9d19 1e3e a1ed bc3d 004d 013e
00000230: 12a5 c73d 2920 063d be95 04bd d98c 3b3b
00000240: b59e a7be bc5c 6c3d ddd9 e6bd 37d6 03bd
00000250: 2d25 9a3d e129 af3c 03f3 62bc efdd b4bd
00000260: 3518 ee3d ec60 65be 7bb2 acbd fa4e 403e
00000270: e465 e73d d0ba b8bd 3dad ac3d a4e7 31be
00000280: 77b6 c7bc f7c3 a73c 0179 873c 25e7 38bd
00000290: 27d8 2bbe 2bbb ab3d 2937 0cbe a214 e73c
000002a0: 0a68 30bd 2f49 1fbe 8350 923d e874 eabd
000002b0: 0f87 d4bc 8c3b 203e 8e9d 48be 5e31 f13d
000002c0: 48ca 53be 7962 0b3d d3c2 d93c f429 45bc
000002d0: e288 00bd 775e 3d3c ac94 e3bd 8d76 00bd
000002e0: 7b23 d7bc a7ee a1be 41c7 40be d475 6dbd
000002f0: 13ee 723d 2157 f9bc a795 37be a8fb a03c
00000300: b553 c43b 764b 623d f700 883a 7847 08be
00000310: a485 a03e 085d 053e 4dcc f5bd 2700 aebd
00000320: 5daa fe3c 5d1d bd3d 22d1 b23b e421 d1bd
00000330: 1b11 5a3d 1ed1 47bd b448 b93d 161d b43d
00000340: fd81 a1bb acc6 e4be 61c3 003d 87bd 083e
00000350: f58b b6bd d577 fabc d2cf 913d e7aa 4cbd
00000360: b43d e4be 59ad e43d d254 103e 1f42 71bd
00000370: 9e6a e7bd c71f 043e 7ec8 103e d052 6fbd
00000380: 968f 33bd eda1 dfbc 2e2c 593c 115f 5fbc
00000390: 806f a7be b577 423e 5cc9 99bb f7a5 303c
000003a0: 246a 83bb e468 14bc 9585 8b3d e3ac cfbd
000003b0: 6c66 1d3d cb52 d13d 346f 243e 942e 833d
000003c0: 5982 cdbc 07db 7c3d d1de 7abd f75d e93d
000003d0: 4257 02be 0726 90be a3b3 f83d 1100 e0bc
000003e0: 1be2 76bd 3e98 ec39 fd6e f03c 99c0 e7bc
000003f0: a8f1 0a3e 164e ccbc aefb 253d bd76 89bd
0.07769667 0.1239113 0.10596628 0.017861156 -0.018467471 0.11991707 -0.21626008 -0.23599644
0.05978019 0.07185229 -0.18714064 -0.054765835 0.041817132 0.023826845 0.054715786 -0.00804266
0.07515697 0.046903532 -0.07329906 0.16273405 -0.04579043 -0.124603376 0.022139212 -0.05854622
0.026605522 0.13885787 -0.16591918 -0.46569762 -0.28302798 -0.162255 -0.12779848 -0.21066274
-0.15965767 -0.20075953 0.118448704 -0.18691655 -0.171218 -0.13666615 0.011512767 -0.020245088
-0.047585193 -0.05153363 -0.017062241 0.081984825 0.08414775 0.04455596 0.11549465 -0.012119837
-0.13136496 -0.099452615 -0.04653859 0.058361243 0.1161354 0.008113438 0.0047699013 0.05610045
-0.3352606 -0.00080768834 0.1104331 -0.026805973 -0.057133775 -0.13599375 0.029008128 -0.05846669
0.0419332 0.121722 -0.07396378 0.0377092 -0.113544546 0.10310714 -0.0030397058 -0.017444722
-0.03993722 -0.0410684 0.054441724 0.03005961 -0.04295164 -0.1264417 -0.044029735 -0.042933058
-0.14747597 -0.12361905 0.06316079 -0.007234496 0.07826388 -0.056979913 0.067433394 -0.1529583
0.015263237 0.0074147447 -0.072303854 -0.22599797 0.15540728 0.028754344 -0.25686064 0.055327173
-0.2853218 0.2722747 0.111608714 -0.011273196 0.050243974 0.057353646 0.15522966 0.008484803
0.13322707 0.09645352 0.07895865 0.11191773 -0.14996935 -0.08588949 -0.26510996 0.052910432
-0.01419053 0.21726261 -0.045733742 -0.21013221 -0.12935925 0.04247313 -0.088917494 0.14526719
-0.0023719785 -0.075483896 0.07657839 -0.039431524 0.043605268 -0.21406618 0.008799207 -0.12332358
-0.14647341 -0.025006546 0.038402803 0.028287405 -0.16808578 0.045495998 -0.05439221 -0.17228587
0.0629822 0.15439458 0.092250116 0.1262703 0.097482815 0.032745514 -0.032369368 0.0028617887
-0.3273827 0.057705626 -0.11272023 -0.032186713 0.07526622 0.021382274 -0.013851884 -0.08831393
0.11625711 -0.22400254 -0.0843248 0.18780127 0.11298731 -0.09020007 0.0843148 -0.1737352
-0.024378998 0.020479186 0.016537191 -0.04514231 -0.16781674 0.08385309 -0.13692917 0.02820808
-0.04306797 -0.15555261 0.07144263 -0.11448079 -0.025943307 0.15647715 -0.19591352 0.11776994
-0.20682633 0.034029458 0.026582157 -0.012033928 -0.03138054 0.011558167 -0.11112341 -0.03136306
-0.026262036 -0.3162739 -0.1882601 -0.057973698 0.059309077 -0.030437054 -0.17928182 0.019651249
0.005991424 0.055247746 0.0010376264 -0.13308513 0.3135196 0.1302377 -0.12001858 -0.08496123
0.031087095 0.09234116 0.0054570595 -0.10211542 0.05323897 -0.048783414 0.0904707 0.0879461
-0.004928826 -0.44682825 0.031436328 0.13353549 -0.089134134 -0.030574718 0.07119717 -0.049967673
-0.44578326 0.11165876 0.14094856 -0.05890095 -0.112996325 0.12902747 0.14138982 -0.058428586
-0.043838106 -0.027298892 0.013255162 -0.013633505 -0.32702255 0.18990977 -0.0046931934 0.010781757
-0.0040104557 -0.009058211 0.06812588 -0.101403974 0.038427755 0.1022087 0.16058046 0.064053684
-0.025086569 0.06173232 -0.06124765 0.113948755 -0.12728599 -0.28154013 0.12143638 -0.027343782
-0.060274225 0.00045126857 0.029349798 -0.02829008 0.13568747 -0.024939578 0.040523224 -0.06712101

fc2.bias f4 [10]
00000000: 3741 ffbe dba6 45be 3f65 59be ac8f af3e
00000010: e6de 323e 223d 753c e9a1 aebb a479 6abe
00000020: a09d 113e 67da 1c3e
-0.49854442 -0.19301932 -0.21230029 0.342893 0.17467842 0.0149681885 -0.00532936 -0.22897965
0.14220285 0.15317689
